…
process_image_data(dataset.load_data())\n","model = detection_model(X_train[0].shape)\n","model.summary()\n","model.fit(X_train, Y_train, \n","          batch_size=32, nb_epoch=10, verbose=1)\n","score = model.evaluate(X_test, Y_test, verbose=1)\n","\n","verify_entry(X_test,Y_test,model , 1)\n"],"execution_count":0,"outputs":[{"output_type":"stream","text":["_________________________________________________________________\n","Layer (type)                 Output Shape              Param #   \n","=================================================================\n","conv2d_10 (Conv2D)           (None, 28, 28, 32)        320       \n","_________________________________________________________________\n","conv2d_11 (Conv2D)           (None, 28, 28, 64)        32832     \n","_________________________________________________________________\n","conv2d_12 (Conv2D)           (None, 25, 25, 128)       131200    \n","_________________________________________________________________\n","average_pooling2d_4 (Average (None, 12, 12, 128)       0         \n","_________________________________________________________________\n","dropout_7 (Dropout)          (None, 12, 12, 128)       0         \n","_________________________________________________________________\n","flatten_4 (Flatten)          (None, 18432)             0         \n","_________________________________________________________________\n","dense_13 (Dense)             (None, 128)               2359424   \n","_________________________________________________________________\n","dropout_8 (Dropout)          (None, 128)               0         \n","_________________________________________________________________\n","dense_14 (Dense)             (None, 64)                8256      \n","_________________________________________________________________\n","dense_15 (Dense)             (None, 32)                2080      \n","_________________________________________________________________\n","dense_16 (Dense)             (None, 10)                330       \n","=================================================================\n","Total params: 2,534,442\n","Trainable params: 2,534,442\n","Non-trainable params: 0\n","_________________________________________________________________\n"],"name":"stdout"},{"output_type":"stream","text":["/usr/local/lib/python3.6/dist-packages/keras/models.py:944: UserWarning: The `nb_epoch` argument in `fit` has 
…
